torchparams/paramsLRoiNo184_t1fs7_00105_train3800.pt (torch, 397325 bytes, 46 tensors)

block0.0.weight f4 [12, 1, 3, 3, 3]
0	0xbe3d4606	-0.18483743
1	0xbc68045b	-0.014161195
2	0xbde750a2	-0.11294676
3	0x3d41785f	0.047233935
4	0xbe00805d	-0.12548967
5	0xbe83093c	-0.25592983
6	0xbc85c6aa	-0.016330082
7	0xbd142651	-0.036169354
8	0xbe543485	-0.2072316
9	0xbe5386bf	-0.2065687
10	0xbe350b2d	-0.17680044
11	0xbd4fe7e6	-0.050758265
12	0xbdc40408	-0.095710814
13	0xbe59de64	-0.21276242
14	0xbe5f1ec4	-0.2178908
15	0xbe046df7	-0.12932573
16	0xbe0d3bce	-0.13792345
17	0x3d312036	0.04324361
18	0xbe5bb1f0	-0.21454597
19	0xbab5c2f4	-0.0013867305
20	0xbe521491	-0.20515658
21	0xbdf1f37f	-0.11814021
22	0x3d8bac7a	0.06820007
23	0x3df2864a	0.1184202
24	0x3dfe1a99	0.12407417
25	0xbe228829	-0.15872253
26	0xbd4fe938	-0.050759524
27	0x3db0595c	0.08610794
28	0x3c65424d	0.013992858
29	0x3e9b2f9a	0.30309755
30	0x3e493475	0.19648917
31	0x3d20ed6c	0.039288923
32	0x3dd692e8	0.10477239
33	0x3e63e9a1	0.22257091
34	0x3e5ed2ee	0.21760151
35	0x3e439ef8	0.1910361
36	0xbde06585	-0.10956863
37	0xbde2dcab	-0.11077245
38	0x3d91a846	0.07112174
39	0x3cf009e7	0.029301597
40	0xbdcc8db0	-0.09987962
41	0xbc40a9dd	-0.011759249
42	0xbc264f7d	-0.010150787
43	0xbe4e74e7	-0.20161782
44	0x3dd5aa06	0.1043282
45	0xbe54c088	-0.2077657
46	0xbe8138bb	-0.25238594
47	0x3e063e60	0.13109732
48	0xbc964773	-0.018344617
49	0xbe4abfcf	-0.19799732
50	0xbe362e40	-0.1779108
51	0xbe5feda8	-0.21868002
52	0xbd740ed6	-0.05958446
53	0x3d75b3d8	0.059985965
54	0xbde0af89	-0.10970981
55	0xbddd53af	-0.10806977
56	0x3e52809d	0.20556875
57	0xbe6bf7fa	-0.23043814
58	0x3def4b38	0.11684269
59	0xbdaf0b51	-0.0854708
60	0xbd518247	-0.051149633
61	0x3e351207	0.17682658
62	0x3e72cd87	0.23711215
63	0xbc6d1222	-0.014469655
64	0xbe4c60b1	-0.1995876
65	0xbcd3a055	-0.025833288
66	0xbe4c67e1	-0.19961502
67	0xbe0dfbe1	-0.13865615
68	0x3e001191	0.12506701
69	0x3dbd88d7	0.09254616
70	0xbcc75b4b	-0.024335524
71	0x3deed3c4	0.11661485
72	0x3d0d8f2c	0.034560367
73	0xbd3cc5a8	-0.046086937
74	0xbe4e745f	-0.2016158
75	0xbe0e9ca7	-0.13926946
76	0x3d5ef745	0.054435033
77	0xbe360461	-0.17775108
78	0xbdca7c18	-0.0988695
79	0xbd347aa3	-0.044062268
80	0xbd23a02e	-0.03994768
81	0xbcf97338	-0.030450448
82	0xbe80af04	-0.25133526
83	0xbd719ba4	-0.05898632
84	0x3e15aa8b	0.14615838
85	0xbe89b430	-0.26895285
86	0x3e5f0a5d	0.21781297
87	0xbd64881d	-0.05579387
88	0xbe0d0fed	-0.13775606
89	0x3e6fc67a	0.23415557
90	0xbcb55529	-0.022135334
91	0x3defc451	0.11707366
92	0xbd398ce5	-0.045300383
93	0x3e4f23a7	0.20228444
94	0xbe0ada7e	-0.1355991
95	0xbe10f59d	-0.14156194
96	0xbd260eca	-0.040541448
97	0xbe8f2a87	-0.27962133
98	0x3e7cf5a6	0.24703082
99	0x3de6ba20	0.11265969
100	0x3d9cf773	0.07664385
101	0xbdcf9b6a	-0.10137065
102	0x3e203a8a	0.15647331
103	0xbe383893	-0.17990331
104	0x3b48fe49	0.0030669144
105	0xbe18cc53	-0.14921694
106	0x3d92345e	0.071388945
107	0x3d11c0da	0.03558431
108	0xbd00bb8f	-0.03142887
109	0x3e2c7d7e	0.16844746
110	0x3ea3e69b	0.32011876
111	0x3e7a9667	0.24471436
112	0x3e6e0490	0.23243928
113	0x3d8b10c4	0.06790307
114	0xbd68052a	-0.05664555
115	0xbb25bcdc	-0.002528957
116	0xbe2fedbd	-0.17180534
117	0xbe3d4025	-0.184815
118	0x3ab0c91a	0.0013487667
119	0x3e481d7a	0.19542494
120	0xbd1f9037	-0.038955893
121	0xbe4c5898	-0.19955671
122	0xbcd820a0	-0.026382744
123	0xbda5d74a	-0.08097704
124	0x3df0c3cc	0.11756095
125	0xbd46f0fe	-0.04856967
126	0xbe2e5f40	-0.17028522
127	0x3dc77d46	0.09740691
128	0xbcd7c514	-0.026339091
129	0xbae52274	-0.0017481581
130	0xbe860e5c	-0.2618283
131	0xbe54d16f	-0.20783018
132	0xbcd8d7bd	-0.02647006
133	0xbda92491	-0.082589276
134	0xbe44787f	-0.1918659
135	0x3df58267	0.11987763
136	0x3e1a3d69	0.15062489
137	0xbd5ee6a9	-0.054419193
138	0xbe0f7f45	-0.14013393
139	0x3da63ef8	0.08117479
140	0xbcb07d37	-0.021544082
141	0x3e3740c3	0.17895798
142	0x3e9fdefa	0.31224805
143	0x3e0e7dd7	0.13915192
144	0xbdf78777	-0.12086385
145	0x3e34f597	0.1767181
146	0x3e68076f	0.22659086
147	0x3da54f39	0.08071751
148	0x3df04dad	0.117335655
149	0xbd368bfb	-0.04456709
150	0x3e383a48	0.17990983
151	0x3e9bafd8	0.30407596
152	0x3e48ea61	0.19620658
153	0xbe551878	-0.20810115
154	0xbd4b573f	-0.04964375
155	0x3da336e0	0.07969451
156	0x3b4221bf	0.0029622165
157	0x3e122e67	0.14275514
158	0x3e70aba3	0.23502974
159	0xbd0302e5	-0.031985182
160	0x3e9bacc7	0.30405256
161	0x3d586c81	0.052837852
162	0xbc438ff1	-0.011936174
163	0xbe9219a7	-0.28535196
164	0xbe1f01a7	-0.15527974
165	0x3d088dea	0.033338465
166	0x3dc9f1e2	0.098605886
167	0xbd896e5e	-0.06710504
168	0x3e8ac1fa	0.27101117
169	0xbd80f987	-0.062975936
170	0x3db65d8f	0.08904564
171	0xbafff6c5	-0.0019528499
172	0xbe8bd4e9	-0.27310875
173	0x3db41452	0.08792938
174	0x3d0cbb90	0.03435856
175	0xbd5fe490	-0.054661334
176	0xbe76a0ad	-0.2408473
177	0x3e26fa6e	0.16306469
178	0x3e317dd3	0.17333154
179	0xbdcaf0e0	-0.099092245
180	0xbdd8878e	-0.1057273
181	0xbdcc022c	-0.09961352
182	0xbe264619	-0.16237678
183	0x3e45c559	0.19313563
184	0xbc2e62da	-0.010643685
185	0x3db9bc00	0.09069061
186	0x3ddd8f4c	0.10818347
187	0x3df4665e	0.119335875
188	0x3d4155ea	0.047201075
189	0x3d714c8d	0.058910895
190	0x3c97e2a9	0.018540697
191	0x3da31aa2	0.07964064
192	0xbd33b97d	-0.043878067
193	0x3c60e5e0	0.0137266815
194	0xbd18a4de	-0.037266605
195	0x3d60b941	0.054864172
196	0xbc0f6ce5	-0.00875399
197	0xbe6278ed	-0.22116442
198	0x3e09d4c7	0.13460074
199	0xbc48df0b	-0.012260209
200	0xbd9d68e7	-0.07686024
201	0xbc8907a1	-0.01672727
202	0xbcc6f044	-0.02428449
203	0xbcc28b5e	-0.023748096
204	0xbd33ee93	-0.043928694
205	0xbc67813d	-0.014129934
206	0xbddf92b0	-0.1091665
207	0x3e42493d	0.1897325
208	0xbd218207	-0.039430644
209	0x3e3809fc	0.17972559
210	0xbe470ac4	-0.194377
211	0xbe620ca5	-0.22075136
212	0xbdb033d1	-0.08603633
213	0xbe5a067c	-0.21291536
214	0xbe5d20c9	-0.21594538
215	0xbd20d7e6	-0.039268397
216	0x3e586a74	0.21134359
217	0x3e7ebf8e	0.2487776
218	0x3e41bd3f	0.18919848
219	0x3df46752	0.11933769
220	0xbd1d719d	-0.03843843
221	0xbe421c2e	-0.18956062
222	0x3dca5d29	0.0988105
223	0xbdcf818a	-0.101321295
224	0xbcc5513a	-0.024086583
225	0xbd3f176c	-0.046653196
226	0x3e02ea80	0.12784767
227	0xbc4a9139	-0.012363725
228	0x3e821d7b	0.25413117
229	0xbd2d25d2	-0.042272396
230	0xbe1ee8b8	-0.15518463
231	0xbe2f654f	-0.1712849
232	0xbe6336b6	-0.2218884
233	0xbe920f56	-0.28527325
234	0x3e7e9e26	0.24865016
235	0xbd73c939	-0.059518073
236	0x3e1aad0e	0.15105078
237	0x3e8b4f4f	0.27208945
238	0xbe8109c3	-0.2520276
239	0x3daabc1b	0.083366595
240	0xbd725c00	-0.05916977
241	0xbe906044	-0.28198445
242	0xbcd5b5f3	-0.026087737
243	0xbe00b7ca	-0.1257011
244	0xbe6dd793	-0.23226766
245	0x3d946455	0.07245699
246	0xbdd86563	-0.10566213
247	0xbe8bfd5a	-0.2734173
248	0xbd0065e3	-0.031347167
249	0xbdfe386d	-0.12413106
250	0xbe28d54c	-0.16487616
251	0xbdbd1d17	-0.09234064
252	0xbb4c8200	-0.0031205416
253	0xbe0e2737	-0.13882147
254	0x3dd7f445	0.105446376
255	0xbda3d76f	-0.08000075

block0.0.bias f4 [12]
0	0x3dae0ca9	0.084985085
1	0x3e27dcdd	0.16392846
2	0xbd8f5f49	-0.07000596
3	0x3d8dc1f7	0.069217615
4	0xbe117a5b	-0.14206831
5	0xbdab66e7	-0.083692364
6	0x3de67c2c	0.11254153
7	0x3e5451b7	0.20734297
8	0x398cc73b	0.0002685132
9	0x3e162ba9	0.14665093
10	0xbc8c90a6	-0.017158817
11	0xbc18381c	-0.009290721

block1.0.weight f4 [16, 12, 3, 3, 3]
0	0xbc8121bf	-0.015763162
1	0x3c9c644a	0.01909079
2	0x3dc44111	0.09582723
3	0x3c9f4adc	0.019444875
4	0x3db21cd3	0.08696904
5	0x3d21401d	0.039367784
6	0x3d4aa818	0.049476713
7	0x3d57f463	0.0527233
8	0x3be37e8a	0.006942575
9	0x3c8d4346	0.017243993
10	0x3d836e38	0.06417507
11	0x3db92725	0.09040669
12	0x3ced9688	0.029002443
13	0x3d85dbd0	0.065360665
14	0x3d11ef46	0.03562858
15	0xbccbb2e5	-0.024865577
16	0x3c1e8c62	0.009677025
17	0x3c7597e9	0.0149898315
18	0x3ca15cb2	0.01969752
19	0xbc5c537f	-0.013447641
20	0x3c26eed3	0.010188776
21	0x3d91ac95	0.071129955
22	0x3db460d6	0.088075325
23	0x3d83d99a	0.064379886
24	0x3d92551a	0.07145138
25	0x3da2f400	0.079566956
26	0x3d1bc481	0.038029198
27	0x3d99b245	0.07504705
28	0x3d6de380	0.05807829
29	0xbdbd1fa4	-0.092345506
30	0x3c956bc3	0.018239861
31	0x3d31c7d9	0.04340348
32	0xbbcfa4e7	-0.0063367966
33	0xbc7eb7f4	-0.0155467875
34	0x3c87b3d0	0.016565233
35	0xbc032264	-0.008003805
36	0xbd08eaa3	-0.033426892
37	0xbdb07f07	-0.086179785
38	0xbdc1fa33	-0.0947155
39	0xbdad4812	-0.08461012
40	0xbd422e26	-0.04740729
41	0xbd83d979	-0.06437964
42	0xbcd4b676	-0.02596591
43	0xbd6a5ad2	-0.05721552
44	0xbd33eea3	-0.043928754
45	0xbdd1317f	-0.10214519
46	0xbb44ac85	-0.0030010056
47	0xbde14200	-0.109989166
48	0xbd9aaa16	-0.075519726
49	0xbd6cc143	-0.057801496
50	0xbde945e7	-0.11390286
51	0xbdadc48c	-0.08484754
52	0xbc740370	-0.014893398
53	0xbdbf611b	-0.09344693
54	0xba8d088c	-0.0010759993
55	0xbcb27047	-0.021782054
56	0x3d84e664	0.06489256
57	0xbd5c10f3	-0.0537271
58	0x3b1cefec	0.0023946716
59	0x3c44896b	0.011995654
60	0xbb4875fe	-0.0030587907
61	0x3d36673d	0.04453205
62	0x3d848d91	0.06472314
63	0xbcd1e8b9	-0.025623666
64	0x3aa54d80	0.0012611598
65	0x3d298805	0.041389484
66	0xbc5200a1	-0.012817533
67	0x3c32c97f	0.010912298
68	0x3ccbd070	0.024879664
69	0x3cbd60fe	0.023117539
70	0x3d9f0ddc	0.07766315
71	0x3d926ad2	0.071492806
72	0x3c1e0cb1	0.009646581
73	0x3cd59249	0.02607073
74	0xbc85a95c	-0.016316108
75	0xbcf71477	-0.030161126
76	0x3d2584e7	0.04040995
77	0x3c9bd887	0.019024147
78	0xbd3f74d2	-0.046742268
79	0x3d4f9920	0.05068314
80	0x3d78cb7a	0.060740925
81	0xbe00b274	-0.12568074
82	0xbc2d6cd8	-0.010585032
83	0xbbcb6c52	-0.006207981
84	0xbd8c7558	-0.06858319
85	0xbc6ecbb7	-0.014574937
86	0xbd4fe0f2	-0.050751634
87	0xbcafc06f	-0.021454064
88	0xbc79a3ea	-0.015236834
89	0xbb7d0fac	-0.0038614077
90	0xbd78b609	-0.060720477
91	0xb7955356	-1.780099e-05
92	0xbd196d30	-0.037457645
93	0xbda83b42	-0.082144275
94	0x3c320c66	0.010867214
95	0x3d27ce0a	0.04096798
96	0xbc892a37	-0.016743762
97	0x3d4e82b0	0.050417602
98	0x3c6e0720	0.014528066
99	0x3b14c41a	0.0022699893
100	0xbcafca27	-0.021458698
101	0xbd2dec48	-0.042461663
102	0xbd8ab4ca	-0.06772764
103	0x3c890698	0.016726777
104	0xbd351c64	-0.04421653
105	0xbda33b4a	-0.07970293
106	0xbbf421e3	-0.0074503287
107	0x3d195df3	0.037443113
108	0x3c8271c8	0.015923396
109	0xbae6d53f	-0.001761116
110	0xbd1c0b3c	-0.03809665
111	0x3cab6951	0.020924242
112	0x3d2c5421	0.04207242
113	0x3d6d03a5	0.057864804
114	0xbd4e8c41	-0.050426725
115	0x3b80ecee	0.003934494
116	0x3cca344e	0.024683144
117	0xbd9b2441	-0.07575274
118	0x3c03ec8a	0.008052001
119	0x3d19e8ab	0.037575405
120	0xbddfabd3	-0.10921445
121	0xbc45c0bb	-0.012069876
122	0xbd12178d	-0.03566699
123	0xbd23b89a	-0.03997097
124	0xbd562351	-0.052279774
125	0xbc16628e	-0.009178771
126	0x3cd5da54	0.026105084
127	0xbb2f09f5	-0.0026708816
128	0xbc4c8dce	-0.012484981
129	0xbd035c27	-0.032070305
130	0x3d1b8564	0.037969008
131	0x3d576cc4	0.05259396
132	0x3c86e809	0.016468065
133	0xbd8e639d	-0.069525935
134	0xbd685b45	-0.056727666
135	0x3d4ef350	0.05052501
136	0x3d737846	0.059440874
137	0xbd26167e	-0.040548794
138	0xbcbb5f0a	-0.022872467
139	0x3cf7bd89	0.030241745
140	0x3bb5b40d	0.0055451454
141	0x3d987a36	0.07445185
142	0x3d11a906	0.035561584
143	0x3cb03bc6	0.021512877
144	0xbd8517af	-0.06498658
145	0xbcfa2ede	-0.030539926
146	0x3d1ef60d	0.03880887
147	0xbc421306	-0.011845356
148	0xbd89c42c	-0.0672687
149	0x3d813834	0.06309548
150	0x3d0bbe0f	0.0341168
151	0xbd1da37a	-0.03848598
152	0x3da09627	0.07841139
153	0x3d2bb299	0.04191837
154	0xb9ccd42f	-0.00039068
155	0x3c113fb0	0.008865282
156	0xbd025049	-0.031814847
157	0xbccd3a5d	-0.025052244
158	0x3d8b6b30	0.06807554
159	0x3d3e531c	0.046465978
160	0x3d31cd49	0.043408666
161	0x3b1c2cbe	0.002383038
162	0x3d614bb8	0.05500385
163	0xbd41dde1	-0.04733074
164	0xbd8d1367	-0.06888466
165	0xbc8e32c2	-0.017358188
166	0xbd2d3fac	-0.04229705
167	0xbd6a04b5	-0.057133395
168	0x3c20e52d	0.009820265
169	0xbcd17a72	-0.025571082
170	0xbc0aad7f	-0.008464216
171	0xbd70257b	-0.058629494
172	0xbcd3827e	-0.02581906
173	0xbdc80491	-0.09766496
174	0x3d0b7731	0.034049217
175	0xbd542d24	-0.051800862
176	0x3b94393c	0.0045234244
177	0xbcf27c7c	-0.029600374
178	0xbd6dc8c0	-0.05805278
179	0xbad15ad8	-0.0015972508
180	0xbd4458e4	-0.047936335
181	0x3c64c26f	0.013962372
182	0xbda5c1a5	-0.080935754
183	0xbd27d1c5	-0.040971536
184	0xbc9a4cdf	-0.018835483
185	0xbd5a44f9	-0.053288434
186	0x3d18271c	0.037146673
187	0xbd876169	-0.066103764
188	0x3c7b0276	0.015320411
189	0x3bbed33b	0.0058235205
190	0xbd06ecbf	-0.032940622
191	0x3ce4877e	0.027896639
192	0xbd0010cb	-0.031266015
193	0x3d2eac37	0.042644706
194	0x3d34e33b	0.044162016
195	0x3d1de49f	0.03854811
196	0x3ba2e48d	0.004971093
197	0x3c4890bf	0.012241541
198	0x3be1bf1b	0.0068892366
199	0x3d8dbe9d	0.06921122
200	0x3be66f08	0.007032279
201	0xbc29ceca	-0.010364244
202	0x3cbb98bb	0.022899976
203	0x3d4944c8	0.04913786
204	0xbbd63d4a	-0.006538068
205	0xbc91a221	-0.017777504
206	0xbcddd169	-0.027077394
207	0xbcc4fea7	-0.024047209
208	0x3db9af61	0.09066654
209	0x3db3e8e5	0.087846555
210	0x3da17b94	0.07884899
211	0xbc10db3f	-0.008841335
212	0xbaf225cc	-0.0018474399
213	0x3cf318b1	0.02967486
214	0xbb1c43e6	-0.0023844182
215	0x3d7b8471	0.061405603
216	0x3cc1fb3f	0.023679374
217	0xbdd0c242	-0.10193302
218	0xbd8859db	-0.066577636
219	0xbb9be8b2	-0.004757964
220	0xbdbb3828	-0.0914157
221	0xbdaa256c	-0.08307919
222	0xbc426461	-0.0118647525
223	0xbe29e121	-0.16589786
224	0xbe01d46d	-0.1267869
225	0xbdddfe2d	-0.10839496
226	0xbde7535a	-0.11295195
227	0xbde6cafc	-0.11269185
228	0xbe00324a	-0.12519184
229	0xbde83d6d	-0.11339841
230	0xbe2e5558	-0.17024744
231	0xbde22675	-0.11042491
232	0xbe3738f7	-0.17892824
233	0xbe6604d2	-0.22462776
234	0xbd7b1b4d	-0.061305333
235	0xbe4760b6	-0.19470486
236	0xbe12b4d3	-0.14326791
237	0xbdee22c6	-0.11627726
238	0xbd8c76f5	-0.06858627
239	0xbe26553b	-0.1624345
240	0xbdebde31	-0.11516989
241	0xbdf79253	-0.12088456
242	0xbe5dec7b	-0.21672241
243	0xbd153f40	-0.036437273
244	0xbd8c3e44	-0.06847814
245	0xbd0a0711	-0.033698145
246	0xbbe20422	-0.0068974653
247	0xbd43b707	-0.04778197
248	0xbda35aa6	-0.07976274
249	0xbd9fdfa1	-0.07806326
250	0xbd2dcc81	-0.04243136
251	0xbd2a3990	-0.041558802
252	0x3b955848	0.004557643
253	0xbd6f68a7	-0.058449414
254	0xbc5758a1	-0.013143689
255	0xbd9e158b	-0.07718953

block1.0.bias f4 [16]
0	0x3c538ef1	0.012912498
1	0xbd1a8e27	-0.037733223
2	0xbc7dd75b	-0.015493239
3	0xbd209d39	-0.03921244
4	0xbd60ee55	-0.05491479
5	0x3d3a4c4c	0.04548292
6	0xbbf250e6	-0.0073948978
7	0x3e0da525	0.13832529
8	0xbd2a0ac6	-0.04151418
9	0x3d1dfa45	0.038568754
10	0xbd0f9145	-0.03505065
11	0xbbfdb731	-0.0077427854
12	0xbd18dc6a	-0.03731958
13	0x3d5a6b65	0.053325076
14	0x3c3d3482	0.011548163
15	0xbcd11bf8	-0.025526032

block1.2.weight f4 [16, 16, 1, 1, 1]
0	0x3e945334	0.2896973
1	0xbd49582b	-0.04915635
2	0xbbaabfcd	-0.0052108527
3	0x3da4192e	0.08012615
4	0xbe5b7e17	-0.21434818
5	0xbe41e7da	-0.189361
6	0x3e4a6529	0.19765152
7	0x3e3dc031	0.18530346
8	0x3db53bc9	0.08849294
9	0x3e498cb1	0.19682576
10	0x3e08eb34	0.13370973
11	0xbd9e1284	-0.07718375
12	0x3b2d7992	0.0026470167
13	0xbe894c3b	-0.26815972
14	0xbd030a6d	-0.031992365
15	0xbd168879	-0.036751244
16	0xbd9de231	-0.07709158
17	0xbe0ee584	-0.13954741
18	0x3e4f28c2	0.20230392
19	0x3ea273f5	0.31729093
20	0xbe8e25bf	-0.27763173
21	0xbe075c67	-0.13218842
22	0x3d507a64	0.05089797
23	0x3e6b0ea6	0.22954807
24	0xbc1183da	-0.0088815335
25	0x3e21db25	0.15806253
26	0x3e120d9a	0.14263001
27	0x3e2a3d03	0.16624837
28	0xbe303f9f	-0.1721177
29	0x3d86e9b8	0.06587547
30	0xbe63afb8	-0.22235
31	0x3e81ae92	0.253285
32	0x3daa755f	0.08323168
33	0x3dd90429	0.105964966
34	0xbe653606	-0.2238389
35	0x3eb9a987	0.36262152
36	0x3dbc002e	0.09179722
37	0x3e602731	0.2188995
38	0xbc6a2183	-0.014290216
39	0xbea4ab75	-0.3216206
40	0x3da0f446	0.078590915
41	0x3e391fb0	0.18078494
42	0xbe38dc24	-0.18052727
43	0x3d8298d1	0.06376804
44	0xbe8e88bc	-0.27838695
45	0xbdbcf604	-0.09226611
46	0x3e01fef9	0.1269492
47	0x3e37529c	0.17902607
48	0x3e6d25b9	0.23158921
49	0x3e1c6204	0.15271765
50	0xbd09dd3a	-0.033658244
51	0xbe66e581	-0.22548486
52	0xbe6a6263	-0.22889094
53	0x3e77d8c4	0.24203783
54	0x3e6eda4f	0.23325466
55	0x3e84a732	0.2590881
56	0xbe66288c	-0.22476405
57	0xbe2a498a	-0.16629615
58	0xbd1790ff	-0.037003513
59	0xbe243192	-0.16034535
60	0x3cbf80de	0.023376878
61	0x3e31d71d	0.17367215
62	0xbe121faf	-0.14269899
63	0x3ca0fc23	0.019651478
64	0xbea02228	-0.3127606
65	0xbe54bd53	-0.20775346
66	0x3d7ae03d	0.061249007
67	0x3e9383f1	0.288116
68	0x3df28b4e	0.118429765
69	0x3ea4c47f	0.32181165
70	0x3d874a41	0.0660596
71	0x3bd663fc	0.006542681
72	0xbe3c3997	-0.18381344
73	0x3e2a9185	0.16657074
74	0xbe3bf98f	-0.18356918
75	0xbd61c6fc	-0.055121407
76	0x3bff4fc2	0.0077914903
77	0x3dd4fb93	0.103995465
78	0xbe84401d	-0.25830165
79	0xbe003b14	-0.12522537
80	0xbdb282a6	-0.087163255
81	0x3d44f3cf	0.048084076
82	0xbe3433c1	-0.17597868
83	0xbdcf7629	-0.10129959
84	0x3e1b5a21	0.151711
85	0xbe4dae51	-0.20086028
86	0xbe48eceb	-0.19621627
87	0xbc07b9c5	-0.008284037
88	0xbe6a4697	-0.2287849
89	0x3eaf7388	0.3426783
90	0x3ec50ebb	0.384878
91	0xbe37e407	-0.1795808
92	0xbc3b38b2	-0.011427091
93	0x3cd392b2	0.025826786
94	0x3e29ff2e	0.1660125
95	0x3d5e8513	0.05432613
96	0x3d749223	0.05970968
97	0x3e062a62	0.13102105
98	0x3daf2209	0.085514136
99	0x3e044870	0.12918258
100	0x3cb16134	0.021652795
101	0xbc876086	-0.016525518
102	0xbda153e1	-0.07877327
103	0x3e8cebbc	0.275236
104	0xbe750dba	-0.23931018
105	0x3e8451c1	0.25843623
106	0x3de6580f	0.112472646
107	0x3daa64e9	0.08320028
108	0xbe36b3e4	-0.1784206
109	0x3e1c59b9	0.15268601
110	0x3d56466e	0.05231326
111	0x3e7efe66	0.24901733
112	0x3d2173c3	0.03941704
113	0x3e4600f2	0.19336298
114	0xbcb4db7c	-0.022077315
115	0x3e7415e4	0.23836476
116	0x3e6ee8de	0.2333102
117	0x3e5d203b	0.21594326
118	0xbe263175	-0.16229804
119	0xbe8e200c	-0.27758825
120	0x3e5adf13	0.21374159
121	0xbdf20fe8	-0.1181944
122	0xbecae4a3	-0.3962756
123	0xbdb33db6	-0.08752005
124	0xbe2348dd	-0.15945764
125	0x3dd9d246	0.106358096
126	0xbe2aeec1	-0.1669264
127	0x3d4a9e0c	0.04946713
128	0x3d30ae52	0.043134995
129	0xbd6f1201	-0.05836678
130	0x3dfea7e8	0.12434369
131	0x3e58a199	0.21155395
132	0xbc5e0ce1	-0.013552875
133	0xbded9643	-0.11600926
134	0x3df9e67e	0.12202166
135	0xbe963859	-0.29339865
136	0x3dced90b	0.100999914
137	0x3e0fed16	0.14055285
138	0x3e60c8ce	0.21951601
139	0xbe503e1f	-0.20336197
140	0xbdb6ebce	-0.08931695
141	0x3e1f6c73	0.15568714
142	0x3e22e4a9	0.1590754
143	0xbe2ef2d1	-0.17084815
144	0x3e8edd29	0.27903107
145	0xbe51a6ce	-0.20473787
146	0xbe529644	-0.20565134
147	0xbe9dd5c5	-0.30827156
148	0xbe393375	-0.18086036
149	0xbe75c313	-0.24000196
150	0x3dd7dbdd	0.105399825
151	0x3dc82c4a	0.097740725
152	0x3d8ae23d	0.06781433
153	0xbcd44b20	-0.025914729
154	0xbdb35b02	-0.08757593
155	0xbe00ba65	-0.12571104
156	0x3e1f46a4	0.15554291
157	0x3eb0a7ae	0.3450293
158	0xbe505bcc	-0.20347518
159	0xbc0477a5	-0.008085166
160	0x3e7cacc7	0.24675284
161	0xbe1bb9f1	-0.1520765
162	0x3e77f9bb	0.24216358
163	0x3d9b0cf0	0.07570827
164	0xbe15fbd8	-0.14646852
165	0x3dbbdb70	0.09172714
166	0xbc4ee918	-0.012628816
167	0x3e4b007b	0.19824402
168	0xbe2a9acd	-0.16660614
169	0xbdec9770	-0.11552322
170	0xbe7b03bc	-0.24513143
171	0xbe7bceb3	-0.24590568
172	0x3e121a84	0.14267927
173	0x3e3bc9ce	0.18338701
174	0x3e28707b	0.16449158
175	0xbe6186b1	-0.22024037
176	0xbda06eaf	-0.07833611
177	0xbc42bea3	-0.011886272
178	0x3e6fdf2a	0.23424974
179	0x3e90a73e	0.28252596
180	0x3e5d71c3	0.21625428
181	0x3cbcab2b	0.023030838
182	0xbd56214a	-0.05227784
183	0xbcda81bc	-0.02667319
184	0x3e42d2ae	0.1902568
185	0x3d4f85dc	0.050664768
186	0xbe18af6e	-0.14910671
187	0x3d36e5ab	0.044652622
188	0x3dccbd66	0.099970624
189	0xbdedbd48	-0.11608368
190	0xbd5d918c	-0.054093882
191	0x3e977557	0.2958171
192	0x3e784fe6	0.24249229
193	0x3da1b10e	0.078950986
194	0xbd2f88e6	-0.042855166
195	0xbe614878	-0.22000301
196	0xbb83eb39	-0.0040258435
197	0x3e37160a	0.17879501
198	0xbd02cc45	-0.031933088
199	0x3ce33129	0.027733402
200	0xbcd4a458	-0.025957271
201	0xbded0602	-0.115734115
202	0x3edd0bc1	0.4317303
203	0x3e344906	0.17605981
204	0x3e26e451	0.16298033
205	0x3e3a2e79	0.1818179
206	0x3e66d4ca	0.2254211
207	0xbe73deb8	-0.23815429
208	0x3d385006	0.04499819
209	0x3c045ea3	0.008079204
210	0xbdf6ccad	-0.120507576
211	0x3d4aac03	0.04948045
212	0x3eb29ba8	0.3488438
213	0xbde10b24	-0.10988453
214	0xbe4050fb	-0.18780892
215	0xbe076cd4	-0.13225108
216	0xbcbef895	-0.023311893
217	0x3c0df772	0.008664953
218	0xbe122121	-0.1427045
219	0xbdffe740	-0.12495279
220	0xbddffc38	-0.10936779
221	0x3e7bc435	0.24586566
222	0x3bb632ef	0.005560271
223	0x3d97001d	0.073730685
224	0xbced1c91	-0.028944286
225	0x3e2c9342	0.1685305
226	0xbe659151	-0.22418715
227	0x3e1aae4d	0.15105553
228	0x3e037c28	0.1284033
229	0xbdae1e4a	-0.08501871
230	0x3e3f7ccf	0.18699954
231	0x3e84a7d4	0.25909293
232	0x3a780858	0.00094616925
233	0x3c00df78	0.007865779
234	0xbe7b0f92	-0.24517658
235	0x3cefee6b	0.029288491
236	0xbd131c7c	-0.035915837
237	0xbd47776f	-0.048697885
238	0x3d9630db	0.07333537
239	0xbe986cb2	-0.29770428
240	0x3e005dad	0.12535734
241	0xbde95202	-0.11392595
242	0xbd45595b	-0.04818092
243	0xbe920ad0	-0.28523874
244	0x3ccf7f70	0.025329322
245	0x3db000c4	0.08593896
246	0x3d633a8c	0.055475757
247	0xbe256d2b	-0.16154926
248	0xbe4b8e12	-0.19878414
249	0x3e2b0630	0.16701579
250	0xbda16400	-0.078804016
251	0x3cc702b0	0.024293274
252	0xbe27dde4	-0.16393238
253	0x3df891c6	0.12137179
254	0x3e4db78c	0.20089549
255	0x3c774ebc	0.015094455

block1.2.bias f4 [16]
0	0xbe7caf33	-0.24676208
1	0x3d937fac	0.07202086
2	0xbd81d89a	-0.063401416
3	0xbdbfa63d	-0.09357879
4	0xbe1f49c4	-0.15555483
5	0x3ddb62e2	0.1071222
6	0x3e1fc0a8	0.15600836
7	0xbdd99dbc	-0.106257886
8	0xbea054ce	-0.313147
9	0xbd80ed3a	-0.062952474
10	0xbdbbb917	-0.091661625
11	0xbdde475f	-0.10853457
12	0x3e15ced0	0.14629674
13	0x3e1de1f4	0.15418226
14	0x3ca989d5	0.020695606
15	0xbcf8cc01	-0.030370714

block2.0.weight f4 [16, 16, 3, 3, 3]
0	0xbdc370fe	-0.09543036
1	0xbd5f249d	-0.054478277
2	0x3d311b45	0.043238897
3	0xbd440192	-0.04785306
4	0xbc9a7883	-0.018856293
5	0xbdfc18d9	-0.12309427
6	0xbda7a7d9	-0.08186311
7	0x3d7980ed	0.06091397
8	0xbdb93559	-0.090433784
9	0xbdc78dd0	-0.097438455
10	0xbd4cbd78	-0.04998538
11	0x3cb393ca	0.021921057
12	0xbd9e3699	-0.077252574
13	0x3d0c8d28	0.034314305
14	0xbd47a2b1	-0.04873914
15	0xbd01df6a	-0.031707205
16	0x3d95c050	0.07312071
17	0xbdc220c2	-0.09478904
18	0xbe4db523	-0.2008863
19	0xbe19fd6d	-0.1503808
20	0x3b301f7c	0.0026874235
21	0xbe1ff937	-0.15622412
22	0xbd574abe	-0.052561514
23	0xbd731655	-0.05934747
24	0xbdea55c6	-0.11442141
25	0xbc845823	-0.016155308
26	0xbda41272	-0.08011331
27	0xbe3ac6d9	-0.18239917
28	0xbd81564f	-0.0631529
29	0xbd60aa3d	-0.054849852
30	0xbe5539c0	-0.20822811
31	0xbdc500a5	-0.096192636
32	0xbcd92984	-0.026509054
33	0xbdbff993	-0.093737744
34	0xbda370eb	-0.07980522
35	0xbd9385a1	-0.07203222
36	0xbe0bdf17	-0.13659321
37	0x3c8fab3b	0.017537704
38	0x3d11d281	0.035601143
39	0xbddaee4d	-0.106899835
40	0xbd1dbcaf	-0.03851002
41	0x3d14d031	0.03633136
42	0xbc6c23ea	-0.014412859
43	0x3a8b131b	0.0010610552
44	0x39d3bbca	0.0004038497
45	0xbe8c1211	-0.27357534
46	0xbdd404a2	-0.10352446
47	0xbd0942e2	-0.03351105
48	0xbe5c5945	-0.21518429
49	0xbe0dc63f	-0.13845156
50	0xbcfeccd7	-0.031103535
51	0xbe08de96	-0.1336616
52	0xbdcbbe88	-0.0994845
53	0xbbe1463e	-0.0068748286
54	0xbc80fae7	-0.01574464
55	0x3ae45316	0.0017419781
56	0xbcbbb17c	-0.02291178
57	0x3d8258bd	0.06364582
58	0x3d247f51	0.04016048
59	0xbbd3d0fa	-0.006464121
60	0x3dc02015	0.09381119
61	0x3d7b907d	0.06141709
62	0x3d3e7c80	0.04650545
63	0xbd798f3c	-0.060927615
64	0x3cbc8cdd	0.023016388
65	0x3db0cfeb	0.08633407
66	0x3dad3018	0.08456439
67	0x3be4109c	0.006959988
68	0xbd0aca18	-0.033884138
69	0x3d9333ab	0.07187589
70	0x3dc3ec5c	0.09566566
71	0x3a66cae5	0.00088040374
72	0xbe1edb00	-0.1551323
73	0xbdb2e2a2	-0.08734633
74	0x3dc0065e	0.093762144
75	0xbd9974b8	-0.074929655
76	0x3b83ec1f	0.0040259506
77	0xbcdabaa8	-0.026700333
78	0x3d7d16a7	0.06178918
79	0x3d1fbc35	0.038997848
80	0xbccfdebb	-0.02537476
81	0x3c87f14c	0.016594552
82	0xb920b768	-0.00015327113
83	0x3c48f505	0.012265448
84	0x3c213c28	0.0098410025
85	0x3d475b80	0.048671246
86	0xbd0a985c	-0.033836707
87	0xbbe6a602	-0.0070388326
88	0x3d23265d	0.039831508
89	0x3cafc752	0.021457348
90	0x3d16babc	0.036799178
91	0x3cf50f05	0.029914388
92	0xbcb6cec6	-0.022315394
93	0xbd0c1498	-0.034199327
94	0x3cefd124	0.02927453
95	0xbc61bfb6	-0.013778618
96	0x3d839f84	0.064269096
97	0x3da4d0ea	0.0804766
98	0x3ccfa32f	0.025346367
99	0xbc852c90	-0.0162566
100	0x3cd3b1fc	0.025841706
101	0x3cb85c95	0.022505084
102	0xbd01558b	-0.03157572
103	0x3d568b9c	0.052379236
104	0x3ae02e2b	0.0017103603
105	0x3cd3326d	0.02578088
106	0x3d1208a5	0.035652775
107	0xbbdc099a	-0.006715012
108	0x3ca3b3f7	0.019983275
109	0xbd60a99d	-0.054849256
110	0xbce18290	-0.027528077
111	0x3d97b7ba	0.0740809
112	0xbd86a434	-0.06574288
113	0xbbb62010	-0.0055580214
114	0x3e18c055	0.14917119
115	0x3d043a44	0.03228213
116	0x3d4354d3	0.047688317
117	0xbcd5c239	-0.02609359
118	0xbdc5918e	-0.09646903
119	0x3c97f108	0.01854755
120	0x3d7559a9	0.05989996
121	0xbb64a13c	-0.0034886142
122	0x3dfee23f	0.12445497
123	0x3e006584	0.12538725
124	0x3d5dc6ad	0.05414455
125	0x3e086730	0.13320613
126	0x3ac5aeff	0.001508206
127	0xbd8df552	-0.06931557
128	0xbd2d757a	-0.042348363
129	0x3d1e8c4e	0.038708024
130	0x3962c94a	0.00021628026
131	0x3db18bd7	0.086692505
132	0x3d67d826	0.05660262
133	0x3d8344ad	0.06409583
134	0x3e29e406	0.1659089
135	0x3c2913b7	0.010319642
136	0x3d89a918	0.06721705
137	0x3d344e2c	0.044019863
138	0x3d3d7712	0.046256132
139	0x3d859535	0.065225996
140	0x3c5990f3	0.0132791875
141	0x3cd33d58	0.025786087
142	0x3d5d5e52	0.05404503
143	0x3d6f259b	0.058385473
144	0xbba8def6	-0.005153532
145	0x3c8375a8	0.016047314
146	0x3d1fa82a	0.038978733
147	0x3d4b1893	0.049583983
148	0x3cc49ce8	0.0240006
149	0x3a6177f9	0.0008600946
150	0x3d2031c8	0.039109975
151	0x3d86cf8f	0.065825574
152	0x3cfc459b	0.03079491
153	0x3cf37ee6	0.029723596
154	0x3c6fd394	0.0146378465
155	0x3ce2741c	0.027643256
156	0x3cc75255	0.024331251
157	0x3da108bf	0.07862996
158	0x3cb1f6da	0.021724153
159	0x3bc8f66d	0.006132892
160	0x3db1dd28	0.0868476
161	0x3d9c0c5f	0.07619547
162	0xbd0f3d98	-0.03497085
163	0x3d2346d4	0.03986247
164	0xbb2618cd	-0.0025344372
165	0x3c7aa5ea	0.015298346
166	0x3d21c4b1	0.03949422
167	0x3cfc1bd6	0.030774992
168	0xbc252ba9	-0.01008121
169	0x3da9492f	0.08265912
170	0x3d617398	0.05504188
171	0x3cc2e6bc	0.023791663
172	0x3c4a1bcc	0.012335729
173	0x3d1f423f	0.038881537
174	0x3d8f7bf2	0.070060626
175	0x3cc3649c	0.023851685
176	0x3be5e4c7	0.007015798
177	0x3d6a3123	0.057175767
178	0x3d61b391	0.05510289
179	0x3d7be972	0.061501928
180	0xbcad9425	-0.021188805
181	0xbcb8d3fe	-0.022562023
182	0xbcb4c974	-0.022068717
183	0x3c905992	0.017620835
184	0x3cadf320	0.021234095
185	0x3d352067	0.044220354
186	0x3d1884e0	0.037236094
187	0x3c4a0b15	0.012331744
188	0x3d8de1b8	0.06927818
189	0xbda56f44	-0.08077863
190	0xbdd9b539	-0.106302686
191	0xbc6a727d	-0.014309523
192	0xbd5e5cc8	-0.0542877
193	0xbd70a7e8	-0.058753878
194	0x3ca22a12	0.019795451
195	0x3d8a92db	0.06766292
196	0xbd5788fe	-0.05262088
197	0x3e0034ea	0.12520185
198	0xbd8187fe	-0.063247666
199	0xbe24e892	-0.16104344
200	0x3d7e8ce5	0.062146086
201	0xbddbd290	-0.10733521
202	0xbdbb3593	-0.09141078
203	0x3e539cd3	0.20665292
204	0x3bf71caf	0.007541261
205	0x3dad6e3a	0.0846829
206	0x3e9427d2	0.2893663
207	0x3dcf049d	0.10108302
208	0x3da87d49	0.08227021
209	0x3d9e4a25	0.07728986
210	0x3b7e428d	0.0038796992
211	0x3c8edc8a	0.017439146
212	0x3de61133	0.11233749
213	0x3d48cd23	0.04902376
214	0x3db83a4e	0.08995496
215	0x3e3c9251	0.1841519
216	0x3d5b2c44	0.053509012
217	0xbd0e14a8	-0.034687668
218	0xbe2f398b	-0.17111795
219	0x3dd4ecff	0.10396766
220	0x3ca701d0	0.020386606
221	0xbe57b652	-0.21065643
222	0xbd824791	-0.063613065
223	0x3d886691	0.06660188
224	0xbe3e58a8	-0.18588507
225	0x3d95a0bd	0.07306049
226	0x3b182f26	0.0023221462
227	0xbe0fda47	-0.1404811
228	0x3d544338	0.051821917
229	0xbd7400ca	-0.059571065
230	0xbe91e861	-0.28497604
231	0x3db1758d	0.08664999
232	0xbd140f5a	-0.036147453
233	0xbec0348e	-0.37540096
234	0xbd4e0dc2	-0.05030609
235	0xbd8cd3d7	-0.06876343
236	0x3cdb9d01	0.026808264
237	0xbdd3504e	-0.10318051
238	0xbe37ee7b	-0.17962067
239	0xbe45775d	-0.19283815
240	0x3d8131e6	0.063083455
241	0xbd92e47f	-0.071724884
242	0xbe9e5ad4	-0.3092867
243	0x3c93efec	0.01805874
244	0x3cf152a5	0.029458353
245	0x3cd0bda5	0.025481055
246	0xbd7d5fa8	-0.061858803
247	0x3d1b7dd5	0.0379618
248	0xbd06bc68	-0.032894522
249	0xbd8f8c85	-0.07009224
250	0xbcdf4b4f	-0.02725759
251	0x3cbbd6fa	0.022929657
252	0xbd08d825	-0.033409256
253	0x3cfe0bc6	0.031011473
254	0x3a868a3d	0.0010264587
255	0xbbe99649	-0.007128511

block2.0.bias f4 [16]
0	0x3d339c27	0.04385009
1	0x3c05000a	0.008117685
2	0x3dd8f961	0.1059444
3	0xbab9863c	-0.0014154385
4	0x3d2a15c9	0.041524682
5	0xbd4be307	-0.049777057
6	0x3d4b3bf2	0.049617715
7	0x3b84019a	0.0040285112
8	0xbd119833	-0.03554554
9	0x3e343639	0.1759881
10	0xbd517f8d	-0.051147033
11	0xbd120bee	-0.03565591
12	0xbd8d8e3a	-0.06911893
13	0x3dcc34ed	0.09971032
14	0xbd2e1405	-0.04249956
15	0xba0163e4	-0.00049358443

block2.2.weight f4 [16, 16, 1, 1, 1]
0	0x3e894dec	0.26817262
1	0xbcf3fc0f	-0.029783277
2	0xbe92bd12	-0.28659874
3	0xbe0ece4d	-0.13945885
4	0xbdb7b3ba	-0.08969827
5	0x3e4f0f1f	0.20220612
6	0xbc69d0d1	-0.014270977
7	0xbe74ae7c	-0.23894686
8	0xbe16436e	-0.1467416
9	0x3e3180f3	0.17334346
10	0xbe86259e	-0.26200575
11	0x3e5286aa	0.20559183
12	0x3d460f29	0.0483543
13	0xbe97369f	-0.2953386
14	0xbd6eb079	-0.058273766
15	0x3e3f66b6	0.18691525
16	0x3debf94b	0.11522158
17	0x3c9994bc	0.01874768
18	0xbd0de14c	-0.034638688
19	0x3e1a087d	0.150423
20	0x3d14ad01	0.036297802
21	0xbe3e80a5	-0.18603761
22	0xbe595b38	-0.21226203
23	0x3e20fd3c	0.15721601
24	0xbdc31938	-0.095262945
25	0xbdf2adab	-0.11849531
26	0x3e4286d1	0.18996741
27	0xbde86943	-0.11348202
28	0x3d13f8aa	0.036125816
29	0x3e8e318a	0.2777217
30	0xbe90b206	-0.2826082
31	0x3e38369d	0.17989583
32	0x3cf15e49	0.029463904
33	0x3e4b260e	0.19838735
34	0xbe9eeae4	-0.31038582
35	0x3e2c8c8e	0.16850492
36	0xbd9bd25b	-0.076084815
37	0x3d8e41d4	0.069461495
38	0x3e334f4c	0.17510718
39	0xbdba0e91	-0.090848096
40	0x3e496524	0.19667488
41	0xbe654a9b	-0.22391741
42	0x3dc3b1b3	0.09555378
43	0x3e549bc7	0.2076255
44	0xbe393608	-0.18087018
45	0x3e510a03	0.20413975
46	0xbda5b136	-0.08090441
47	0xbe5e3d9e	-0.21703193
48	0x3d175109	0.036942516
49	0xbc4d8074	-0.012542833
50	0xbd32bcdd	-0.043637145
51	0x3e0f4f33	0.13995056
52	0x3de8e1e2	0.11371209
53	0x3de10738	0.10987705
54	0x3e1d2e5f	0.1534972
55	0xbdad0793	-0.0844871
56	0xbe31eb68	-0.17374957
57	0x3e8fcbbe	0.2808513
58	0x3defad6a	0.11702998
59	0xbc32ab52	-0.010905104
60	0x3e96a13c	0.29419887
61	0x3e18af63	0.14910655
62	0xbe996b24	-0.29964554
63	0x3e216e28	0.15764678
64	0xbdce9646	-0.10087256
65	0xbe407227	-0.18793546
66	0xba9cec46	-0.001197227
67	0x3db124a7	0.08649569
68	0xbe185c6e	-0.14879009
69	0xbe58f47e	-0.21187016
70	0x3d73c812	0.059516974
71	0xbdd97b0f	-0.10619175
72	0xbe07fe09	-0.132805
73	0xbd32e80e	-0.043678336
74	0x3cd9ffa4	0.026611157
75	0xbe343d05	-0.17601402
76	0xbb8992e6	-0.00419842
77	0xbe83cd85	-0.25742736
78	0x3e620c40	0.22074986
79	0xbe46395d	-0.1935782
80	0xbe8573a4	-0.2606479
81	0xbe45c627	-0.1931387
82	0x3d8374bd	0.064187504
83	0x3e482892	0.19546726
84	0xbe496544	-0.19667536
85	0xbe1a8368	-0.1508919
86	0x3e52c49e	0.20582816
87	0x3dfbec15	0.123008884
88	0xbb4312d1	-0.0029765854
89	0xbe0bd69a	-0.13656083
90	0xbe3f9577	-0.1870936
91	0xbdcb8a03	-0.09938433
92	0xbde392a4	-0.11111954
93	0x3dbf89c1	0.09352446
94	0x3e0e4de7	0.13896905
95	0xbe6dea69	-0.23233952
96	0xbe14117c	-0.14459795
97	0x3d4e73f5	0.050403554
98	0xbe73d3dd	-0.23811288
99	0xbe87e044	-0.2653829
100	0xbe115eb3	-0.14196281
101	0x3d177e7b	0.036985856
102	0x3deaedfc	0.11471173
103	0xbe0513ae	-0.12995788
104	0x3e4b65f6	0.19863114
105	0x3d0ed0e0	0.034867167
106	0x3c6f713b	0.014614399
107	0xbde112b6	-0.10989897
108	0x3e874d44	0.26426136
109	0xbdd02aa2	-0.101643816
110	0x3dc90c6e	0.09816824
111	0xbb8b98b7	-0.0042601484
112	0x3dedbe6d	0.116085865
113	0x3e57f276	0.21088585
114	0x3cec2fc9	0.02883138
115	0xbbaa9659	-0.005205911
116	0x3e0d1e5d	0.13781114
117	0xbddedd44	-0.10882047
118	0x3cd20dbd	0.025641317
119	0x3d560203	0.052248012
120	0xbe6955ca	-0.22786632
121	0xbe989ae9	-0.29805687
122	0xbe4048fa	-0.18777838
123	0xbc9ea42f	-0.019365398
124	0xbe8f4729	-0.27983978
125	0x3b8c52f8	0.0042823516
126	0xbc2f9937	-0.010717682
127	0x3e3e82b0	0.18604541
128	0xbda8955f	-0.08231615
129	0x3e0f4180	0.1398983
130	0x3ea0bbaa	0.31393176
131	0xbc02dcb4	-0.00798719
132	0xbdb35a7d	-0.08757494
133	0x3ddbd345	0.10733656
134	0x3c079845	0.00827605
135	0xbe554021	-0.20825244
136	0x3d402298	0.04690799
137	0xbe3cc18e	-0.1843321
138	0xbd674abc	-0.056467757
139	0xbca15849	-0.019695418
140	0xbe4fa579	-0.20277967
141	0x3e39c70a	0.18142334
142	0xbe0e94bc	-0.13923925
143	0xbe391ccf	-0.18077396
144	0x3d0f37f5	0.034965474
145	0xbdb23813	-0.087021016
146	0xbda693f3	-0.08133688
147	0x3d8edf2d	0.06976161
148	0x3e3f734d	0.18696328
149	0xbde729e8	-0.1128729
150	0xbe7e6ba4	-0.24845749
151	0xbe3fdbc8	-0.18736184
152	0xbbc7005f	-0.0060730423
153	0x3ee416b2	0.44548565
154	0x3e87bdf2	0.26512104
155	0x3e16bd00	0.14720535
156	0xbe833d55	-0.2563273
157	0x3eb388cd	0.35065308
158	0x3d3bc8e2	0.045845874
159	0x3dadd69f	0.08488201
160	0xbe44490e	-0.19168493
161	0x3e6dd393	0.2322524
162	0x3e761a10	0.2403338
163	0xbe223a7c	-0.15842623
164	0x3d254088	0.040344745
165	0x3dde53a7	0.10855799
166	0x3e4edf33	0.20202331
167	0x3d23004c	0.039795205
168	0x3e2e1476	0.16999993
169	0x3dd839f6	0.1055793
170	0xbd81f377	-0.06345265
171	0x3e42567c	0.18978304
172	0xbe3e124e	-0.1856167
173	0x3e0d4b76	0.13798317
174	0x3e77002b	0.24121158
175	0xbdd13ece	-0.10217057
176	0x3e213d00	0.15745926
177	0x3d8d2698	0.06892127
178	0x3d96e74a	0.07368334
179	0xbea7654a	-0.32694465
180	0xbdb734c3	-0.089456104
181	0x3d19edf5	0.03758045
182	0x3e837b95	0.25680223
183	0xbd9d9e72	-0.07696237
184	0x3da25128	0.079256356
185	0xbe50eb25	-0.204022
186	0xbe21ed40	-0.1581316
187	0xbcadbb83	-0.021207577
188	0xbcec4d53	-0.028845465
189	0x3ea14b01	0.31502536
190	0xbe6f2832	-0.23355177
191	0xbd6aae05	-0.057294864
192	0xbd05b154	-0.032639816
193	0xbe45a74e	-0.19302103
194	0x3e3b2a82	0.18277934
195	0xbeb4c1a7	-0.35303995
196	0xbdb249c5	-0.08705477
197	0x3e6ffcac	0.2343623
198	0x3e23898f	0.15970443
199	0x3da238aa	0.07920964
200	0x3d922408	0.07135779
201	0xbdb9628f	-0.09052002
202	0x3cd99430	0.02655992
203	0xbd143f25	-0.03619303
204	0x3e2178da	0.15768757
205	0xbd92df6e	-0.07171522
206	0x3dbc1f44	0.09185651
207	0x3cca678d	0.02470758
208	0x3dead2c9	0.11465985
209	0x3d834341	0.06409312
210	0x3dcbc002	0.09948732
211	0x3d1f374a	0.038871087
212	0xbdd79f1c	-0.105283946
213	0xbe2a1563	-0.16609721
214	0x3e89e8a1	0.26935294
215	0xbde7e004	-0.113220245
216	0xbdeb1a99	-0.114796825
217	0x3f13f6b5	0.5779832
218	0x3dafe294	0.08588138
219	0xbe2fc02f	-0.17163156
220	0xbe4afa67	-0.19822083
221	0x3d4bba33	0.04973812
222	0xbe09b43d	-0.13447662
223	0xbe4099c8	-0.18808663
224	0xbe42a68e	-0.19008848
225	0x3e0f18d6	0.13974318
226	0xbe28b655	-0.16475804
227	0xbe1fc960	-0.15604162
228	0xbe27b5cf	-0.16377948
229	0xbe4d38b9	-0.20041169
230	0xbdccaf86	-0.09994416
231	0x3df02a78	0.1172685
232	0xbcffe596	-0.031237405
233	0x3e01ba20	0.12668657
234	0xbe2ad173	-0.16681461
235	0x3e5b6831	0.21426465
236	0x3e48b5c1	0.19600584
237	0x3e21e600	0.15810394
238	0x3e4f76c0	0.20260143
239	0x3d6af273	0.057360124
240	0x3e2d18c3	0.16903977
241	0x3d30607f	0.043060776
242	0xbe8b8746	-0.27251643
243	0xbe3b4c4e	-0.18290827
244	0x3ea60f14	0.3243338
245	0x3daaa2c7	0.083318286
246	0x3e518221	0.20459796
247	0x3e785f81	0.24255182
248	0x3e41b870	0.18918014
249	0xbe95bf65	-0.29247585
250	0x3d064868	0.032783896
251	0xbe59b09d	-0.21258779
252	0x3df5e543	0.12006619
253	0x3e064356	0.13111624
254	0x3e22d22d	0.15900488
255	0x3e1c2da8	0.15251791

block2.2.bias f4 [16]
0	0xbaaf0660	-0.001335334
1	0x3e20e284	0.15711409
2	0xbe33abb8	-0.17545974
3	0xbe425975	-0.18979438
4	0xbe373f16	-0.17895159
5	0x3d876dcd	0.0661274
6	0xbb17ec10	-0.0023181476
7	0xbe704cb9	-0.23466767
8	0x3e4c7d3f	0.19969653
9	0xbba27785	-0.0049580955
10	0x3e02d6bc	0.12777227
11	0x3e5c81f9	0.21533956
12	0xbe7675ce	-0.24068376
13	0xbe2127d7	-0.15737854
14	0xbe38171e	-0.17977569
15	0xbd9b72be	-0.07590245

block3.0.weight f4 [16, 16, 3, 3, 3]
0	0xbd58b815	-0.05290993
1	0xbd42e315	-0.047579844
2	0xbd0afc51	-0.033932034
3	0xbc6eaa9e	-0.0145670455
4	0xbd293179	-0.041306946
5	0xbd1c0fc7	-0.038100984
6	0x3c4a4c44	0.012347285
7	0x3d089482	0.033344753
8	0xba726442	-0.0009246507
9	0xbd5eae8e	-0.054365687
10	0x3b81772c	0.003950974
11	0x3aa88889	0.0012858073
12	0xbd2a8159	-0.04162726
13	0xbcad56af	-0.021159498
14	0x3c3791cb	0.011204193
15	0xbc4cc1b4	-0.012497354
16	0x3c386e94	0.011256833
17	0xbcb027fe	-0.021503445
18	0x3d2702a2	0.040773995
19	0xbcb254c8	-0.021768942
20	0xbd30b35d	-0.043139804
21	0xbb501142	-0.0031748568
22	0xbd0ff199	-0.035142515
23	0x3ced9bb1	0.029004904
24	0x3c916c95	0.017751971
25	0x3cc096e2	0.023509447
26	0xbd2e7d7e	-0.042600147
27	0xbb676356	-0.0035307012
28	0xbd11f852	-0.035637207
29	0x3d1294e9	0.035786543
30	0xbcce6344	-0.025193818
31	0x3cb78083	0.022400146
32	0xbcc5f1df	-0.024163185
33	0xbc345e5d	-0.011008826
34	0x3bcf2166	0.00632112
35	0xbab22d09	-0.0013593744
36	0xbd2a9daf	-0.041654285
37	0xbd40392d	-0.046929527
38	0x3b3b5854	0.0028586583
39	0x3d0a7044	0.03379847
40	0x3c2c8852	0.010530548
41	0x3cad5810	0.021160156
42	0xbd3cb373	-0.046069574
43	0xbd1227b3	-0.03568239
44	0x3b7cd0c0	0.0038576573
45	0x3d2b05dc	0.041753635
46	0xbb35440e	-0.0027658972
47	0xbb697572	-0.0035622981
48	0xbd423673	-0.047415208
49	0xbd34612a	-0.044037975
50	0xbcb8b294	-0.02254609
51	0xbccca34d	-0.024980212
52	0x3d219a91	0.039454047
53	0xbd23fd72	-0.040036626
54	0x3d020454	0.03174241
55	0xbd5a2d2a	-0.053265728
56	0x3c9d159d	0.019175345
57	0xbd1b6410	-0.037937224
58	0x3ccdd415	0.025125543
59	0x3cd2196c	0.025646888
60	0xbc81b986	-0.015835535
61	0xbc254a45	-0.010088508
62	0xbc1fbe33	-0.009749937
63	0xbca72971	-0.020405503
64	0x3cc4de5e	0.024031814
65	0xbb2dbc54	-0.0026509957
66	0xbce49160	-0.027901351
67	0x3d3b6ad3	0.045756172
68	0x3c6d911b	0.014499928
69	0xbc6147fa	-0.013750071
70	0x3a3a2979	0.0007101517
71	0x3b779602	0.003777862
72	0x3cd9c8a1	0.026584925
73	0x3d1071e6	0.035264872
74	0xbc92f320	-0.017938197
75	0x3c87e0d3	0.016586697
76	0x3d09c0f5	0.033631284
77	0x3c87826e	0.016541686
78	0x3c7e4e2d	0.015521568
79	0x3bd9036b	0.006622722
80	0x3d041648	0.03224781
81	0x3d0c0f76	0.034194432
82	0xbcd88493	-0.026430404
83	0xbb4c02c9	-0.003112959
84	0x3cca60dd	0.024704391
85	0xbce294f1	-0.027658911
86	0xbd5a82cd	-0.053347398
87	0xbd226071	-0.039642755
88	0xbcd0cc93	-0.025488174
89	0x3d0df57e	0.034657948
90	0xbc6c6ad6	-0.014429769
91	0xbca2a3ad	-0.019853437
92	0xbca1e6b1	-0.019763323
93	0xbd44705d	-0.04795872
94	0xbbc6a59f	-0.006062224
95	0x3ca85adb	0.020551136
96	0x3d51fb70	0.05126518
97	0xbcc24df9	-0.02371882
98	0x3cefe6a5	0.029284785
99	0xbbcbec69	-0.0062232506
100	0xbbc6ba81	-0.0060647135
101	0xbd367e2c	-0.04455392
102	0xbd1a2237	-0.037630286
103	0xbbb4f09c	-0.005521847
104	0x3c7724da	0.01508447
105	0x3c40d9a3	0.011770639
106	0xbd022bba	-0.031779982
107	0x3cf9666b	0.030444345
108	0xbd348c42	-0.044079073
109	0x3abc18a5	0.0014350606
110	0x3bb0899c	0.005387498
111	0xbc4d3d2f	-0.012526794
112	0xbcc14f00	-0.02359724
113	0xbbd9c952	-0.0066463137
114	0xb84d95b6	-4.9015238e-05
115	0xbd44a238	-0.048006266
116	0x3c942a81	0.018086674
117	0x3d1ad06d	0.037796427
118	0xbd3c7ca0	-0.04601729
119	0xbc267652	-0.010160046
120	0x3c7db78c	0.0154856555
121	0x3cb4bcec	0.022062741
122	0x3c0e2bf2	0.00867747
123	0x3c07b8e4	0.008283827
124	0xbcaed87d	-0.021343464
125	0x3d248a79	0.04017112
126	0xbd17db90	-0.037074625
127	0xbbf1e3c0	-0.0073818862
128	0xbd0ed5f5	-0.034872014
129	0xbce3617a	-0.027756441
130	0x3b5d8c7c	0.003380566
131	0x3cf4fbc5	0.02990521
132	0xbd3d6288	-0.046236545
133	0xbcb5de30	-0.022200674
134	0xbceaed6f	-0.02867767
135	0xbca86fa3	-0.020561045
136	0x3c1742bd	0.00923222
137	0xbc03ad96	-0.008036992
138	0xbb8afbd3	-0.0042414456
139	0xbb8aff5f	-0.0042418684
140	0x3c39df97	0.011344812
141	0x3a9b0f66	0.0011830151
142	0xbce99217	-0.028512044
143	0x3d2b80ad	0.04187076
144	0xbd2c858f	-0.04211956
145	0xbd217b0a	-0.03942398
146	0x3d34b6bb	0.044119578
147	0xbd4c72fc	-0.049914345
148	0xbd19b441	-0.03752542
149	0xbc7bc2e3	-0.015366289
150	0x3cc749ad	0.024327124
151	0x3ba20891	0.004944869
152	0xbd14f5f3	-0.036367368
153	0x3ad4da54	0.0016239383
154	0xbd2a6dda	-0.04160867
155	0x3b08cb55	0.0020873148
156	0x3c8d5470	0.017252177
157	0x3bae6134	0.005321646
158	0x3d04dd72	0.03243775
159	0x3d2138e9	0.039360914
160	0x3a5b158c	0.0008357398
161	0xbbac194b	-0.0052520386
162	0xbd123c20	-0.03570187
163	0xbbc405b2	-0.0059821242
164	0x3cde2aaa	0.027119953
165	0x3bfbef5a	0.007688445
166	0xbb923c2f	-0.004462741
167	0x3c1d6554	0.009606678
168	0x3c4cfa40	0.012510836
169	0x3cb4cdf2	0.022070859
170	0xbcf86aff	-0.030324457
171	0xbd15a3a0	-0.036532998
172	0xbd45474a	-0.04816369
173	0xbd95faa5	-0.07323197
174	0xbcfd285b	-0.030903032
175	0xbce8d69e	-0.02842265
176	0xbd9de972	-0.07710542
177	0xb9d2f926	-0.0004023995
178	0xbc4250ba	-0.011860067
179	0xbc833b5b	-0.016019514
180	0x3cdc4af7	0.026891215
181	0x3c408294	0.011749882
182	0xbd017814	-0.031608656
183	0x3d1584a7	0.03650346
184	0xbd953298	-0.072850406
185	0xbd49a5ce	-0.04923039
186	0x38e39f82	0.00010853914
187	0xbaf0587e	-0.001833692
188	0xbd8bee9f	-0.06832623
189	0xbbed4b35	-0.0072416314
190	0x3cec3c37	0.028837306
191	0x3d33aa33	0.043863486
192	0xbd30a5a1	-0.043126706
193	0x3d0d4d20	0.03449738
194	0xbc62043d	-0.013794956
195	0x3c8e40a8	0.017364815
196	0xbcfc2b37	-0.030782325
197	0xbcabf2c9	-0.020989792
198	0xbb4e985d	-0.003152392
199	0x3cacb0cd	0.021080399
200	0x3c6b1e79	0.014350527
201	0x3d3af372	0.045642324
202	0x3cfcb1e3	0.030846542
203	0x3c701d2f	0.014655395
204	0x3d1111a0	0.0354172
205	0x3b11d2eb	0.002225096
206	0xbc444445	-0.011979167
207	0x3c8f04ab	0.01745828
208	0x3bdced77	0.006742175
209	0xbb0af5eb	-0.0021203707
210	0xbb46ca59	-0.003033301
211	0x3c679e15	0.014136811
212	0xbba9ad24	-0.0051781107
213	0xbd03e9fa	-0.03220556
214	0x3d1b96fb	0.037985783
215	0x3ce42c80	0.02785325
216	0xbcdcf25f	-0.02697104
217	0x3d4254d4	0.04744418
218	0x3d3cc498	0.046085924
219	0x3a75e606	0.00093802845
220	0x3d46d8a3	0.048546445
221	0x3c9e845c	0.019350223
222	0xbd26659f	-0.040624257
223	0xbb2ae5ee	-0.002607699
224	0xbd3b5845	-0.045738477
225	0x3cc5a349	0.024125712
226	0x3cbb9bb6	0.022901397
227	0x3cc97884	0.0245936
228	0xbbec4ded	-0.007211438
229	0x3b4e261b	0.0031455818
230	0xbc1ac5e4	-0.009446595
231	0xbc7ef493	-0.015561241
232	0xbccf7e05	-0.025328645
233	0xba02cda7	-0.0004989751
234	0x3c3760b1	0.011192487
235	0x3d47c481	0.048771385
236	0xbd25bb09	-0.040461574
237	0xbd35bb46	-0.04436805
238	0x3a94f7ed	0.0011365392
239	0x3c6fe6b0	0.0146424025
240	0xbc5f3b9f	-0.013625055
241	0xbd20a5c5	-0.03922059
242	0xbb9061d7	-0.0044061947
243	0x3c96314e	0.018334057
244	0xbacb78b5	-0.0015523644
245	0xba1a74e2	-0.00058920507
246	0x3a8cc51e	0.0010739898
247	0xbd143ccc	-0.036190793
248	0xbd27d973	-0.04097886
249	0x3cca12a8	0.0246671
250	0xbd0f4e58	-0.034986824
251	0xbceefce8	-0.02917333
252	0xbb6b5b66	-0.0035912632
253	0x3c8ec844	0.017429478
254	0xbd421fb7	-0.047393527
255	0xbcd4bb28	-0.02596815

block3.0.bias f4 [16]
0	0xbce10622	-0.027468745
1	0x3c79c14a	0.015243838
2	0xbc1ee48d	-0.009698045
3	0x3b678bf7	0.0035331228
4	0xbd0b3d09	-0.033993755
5	0x3cba3412	0.022729907
6	0x3cfa76d3	0.030574238
7	0xbdb16500	-0.08661842
8	0xbd10e26f	-0.035372194
9	0xbc5de0b7	-0.013542346
10	0x3dab64d1	0.083688386
11	0x3c9942dd	0.01870864
12	0x3d4e935b	0.050433498
13	0xbcc142b8	-0.023591384
14	0xbd818e48	-0.06325966
15	0x3d5918ef	0.053002294

block3.2.weight f4 [16, 16, 1, 1, 1]
0	0xbe009072	-0.12555102
1	0xbe035851	-0.12826659
2	0x3e3b0657	0.18264137
3	0x3e0a8184	0.13525969
4	0x3e13ed9a	0.14446107
5	0x3e3cde94	0.18444282
6	0xbd5ca326	-0.053866528
7	0xbe16514c	-0.1467945
8	0xbe08f640	-0.13375187
9	0xbe56f327	-0.20991193
10	0x3e0a3f36	0.13500676
11	0x3e3dc5ee	0.18532535
12	0xbe72198e	-0.23642561
13	0x3d999294	0.07498661
14	0xbd2b32c4	-0.04179646
15	0x3e8f839c	0.28030097
16	0xbe05ae89	-0.13054861
17	0x3e136cea	0.14397016
18	0xbdf86f1f	-0.1213057
19	0xbd95c7fb	-0.07313534
20	0x3e176610	0.14785028
21	0xbd50239c	-0.05081521
22	0xbe2cd78c	-0.168791
23	0x3ebcaae8	0.3684914
24	0x3e3404dc	0.17579979
25	0xbe119d61	-0.14220192
26	0xbe48122a	-0.19538179
27	0xbda45489	-0.08023936
28	0xbdd79ab7	-0.105275564
29	0xbd8da125	-0.069155015
30	0xbe91429b	-0.28371128
31	0xbe02142e	-0.1270301
32	0xbe28df7a	-0.164915
33	0xbdeb2975	-0.11482517
34	0x3d97c671	0.074108966
35	0xbca78450	-0.020448834
36	0xbd1f4ec9	-0.038893495
37	0xbe02aac0	-0.12760448
38	0xbdecec0c	-0.1156846
39	0xbe33ec58	-0.17570627
40	0x3e2351be	0.15949151
41	0x3da4ef44	0.08053449
42	0x3e6282a5	0.2212015
43	0x3e3706d7	0.17873703
44	0x3e3c6e3f	0.1840143
45	0xbd9ee0a4	-0.077576905
46	0x3dd5eccb	0.10445555
47	0xbcce3814	-0.025173225
48	0xbe6d8019	-0.23193397
49	0xbce161a2	-0.027512375
50	0xbe4996d6	-0.19686446
51	0xbe4ecfd1	-0.20196463
52	0x3e81a524	0.25321305
53	0xbe4c341f	-0.19941758
54	0x3e1b6a41	0.15177251
55	0x3e86c66d	0.26323262
56	0xbe095e37	-0.13414846
57	0x3e86da46	0.26338404
58	0x3e84e1d5	0.25953546
59	0x3db79904	0.08964732
60	0xbbccb02d	-0.0062465877
61	0x3e4899c5	0.19589908
62	0xbedc44b4	-0.43021166
63	0xbe1f008a	-0.1552755
64	0xbcf084f2	-0.029360268
65	0xbd7f14b2	-0.062275596
66	0xbe515f91	-0.20446612
67	0x3d874b33	0.0660614
68	0x3e6912b3	0.2276104
69	0xbab94a32	-0.0014136492
70	0x3e5e47d5	0.21707089
71	0x3e43ea2f	0.19132303
72	0xbda4a0ea	-0.080385044
73	0xbceb0036	-0.028686624
74	0xbe9d87fe	-0.30767816
75	0x3c7c03ac	0.015381735
76	0x3e0eff2c	0.13964528
77	0x3cb43d1d	0.022001797
78	0xbd717c08	-0.058956176
79	0xbe56ca6a	-0.20975652
80	0x3e10eeff	0.1415367
81	0xbe6c8ac4	-0.2309981
82	0xbe7ea6dc	-0.2486834
83	0xbddce3de	-0.1078565
84	0x3cb1bb0c	0.021695636
85	0xbe063789	-0.13107122
86	0xbd2e75fc	-0.042592987
87	0xbc4fc6b2	-0.01268165
88	0xbe3ceba1	-0.1844926
89	0xbe0156e4	-0.12630802
90	0xbdabe13c	-0.083925694
91	0x3e2e7be9	0.17039455
92	0xbe52b849	-0.20578112
93	0xbe487489	-0.19575705
94	0x3cf546a4	0.02994091
95	0x3de854ec	0.113443226
96	0x3e3069d9	0.17227878
97	0x3c511465	0.01276121
98	0xbd5d2067	-0.05398598
99	0x3dc7bd79	0.09752936
100	0x3e062e91	0.13103701
101	0xbe2ec8b1	-0.17068745
102	0x3d208cfe	0.03919696
103	0xbdf78618	-0.12086123
104	0xbe5dd491	-0.21663119
105	0x3e47477a	0.1946086
106	0x3d4a36d2	0.049368687
107	0x3da8b869	0.082382984
108	0xbdb40eaa	-0.087918594
109	0xbdb86328	-0.090032876
110	0xbda0307d	-0.078217484
111	0xbca3206d	-0.019912923
112	0x3e25df22	0.161984
113	0xbdb396ff	-0.087690346
114	0xbe5ad4c7	-0.2137023
115	0x3ddb4a2d	0.10707507
116	0xbe6c0e59	-0.23052348
117	0x3e14421c	0.14478344
118	0xbe6373b8	-0.22212112
119	0xbdff4048	-0.124634326
120	0xbd4adc89	-0.049526725
121	0xbe674610	-0.2258532
122	0x3d241f18	0.040068716
123	0xbda73351	-0.08164085
124	0xbe791bf8	-0.24327075
125	0xbc586640	-0.013207972
126	0xbd85a5bf	-0.06525754
127	0x3db2659c	0.08710787
128	0x3e22864e	0.15871546
129	0x3e547a08	0.20749676
130	0xbd5d6fc0	-0.05406165
131	0xbcb87fd0	-0.022521883
132	0xbe2166d8	-0.15761888
133	0xbe222f66	-0.15838394
134	0x3c9f7f50	0.019469887
135	0xbd42fd18	-0.04760465
136	0x3de630a8	0.11239749
137	0xbe36ed4a	-0.17863956
138	0xbdf76530	-0.12079847
139	0x3e63e1e6	0.22254142
140	0xbbd02680	-0.006352246
141	0x3e0a9072	0.13531664
142	0xbd9dce50	-0.077053666
143	0xbdf4fa14	-0.11961761
144	0xbe1db3f6	-0.15400681
145	0x3bb1e7e8	0.0054292567
146	0xbe073ee8	-0.1320759
147	0x3e22d489	0.15901388
148	0x3d919e9a	0.07110329
149	0x3e1fd722	0.1560941
150	0xbe31f0b9	-0.17376985
151	0x3e2e1bc2	0.17002776
152	0x3e0f42c1	0.13990308
153	0xbe02226c	-0.12708443
154	0xbd05db15	-0.032679636
155	0xbdbd5f04	-0.092466384
156	0xbe7700ed	-0.24121447
157	0xbe52dc65	-0.20591886
158	0x3e8cc950	0.2749734
159	0xbe1dd6e9	-0.15414013
160	0x3e4098ee	0.18808338
161	0xbe422dc8	-0.18962777
162	0x3e363e34	0.17797166
163	0x3d6588a2	0.056038506
164	0xbe236255	-0.1595548
165	0xbe1243e4	-0.1428371
166	0xbe28ee61	-0.16497184
167	0x3dabf4a3	0.0839627
168	0xbda3a28b	-0.07989987
169	0x3e61e3cf	0.22059558
170	0x3c22d332	0.009938048
171	0xbd39efba	-0.045394637
172	0xbdd4d8e1	-0.10392929
173	0x3e002936	0.1251572
174	0xbd744ecd	-0.059645463
175	0x3e623189	0.22089209
176	0x3e4eb4ff	0.20186232
177	0x3e0028bd	0.1251554
178	0x3e68b046	0.22723493
179	0x3da14108	0.07873732
180	0x3e128fb7	0.14312635
181	0x3e1953c0	0.14973354
182	0x3e5ce67b	0.21572296
183	0xbe8f07fd	-0.27935782
184	0xbe1d5c07	-0.15367137
185	0x3e305d42	0.17223075
186	0xbdd1517f	-0.10220622
187	0x3da69dcd	0.08135567
188	0x3e76b020	0.24090624
189	0x3c84c68f	0.016207961
190	0xbe816f09	-0.25280026
191	0x3d5ebb85	0.05437805
192	0x3ddc699e	0.107623324
193	0xbde75d1c	-0.11297056
194	0x3e656813	0.22402982
195	0xbd1fddb5	-0.039029796
196	0x3e6489a1	0.22318126
197	0x3e0c0269	0.13672794
198	0x3e80984f	0.25116202
199	0x3cc0f8d5	0.023556152
200	0xbe4aa2af	-0.19788621
201	0x3e2991fc	0.16559595
202	0x3dd36b18	0.10323161
203	0x3da8ada5	0.08236245
204	0xbe744d8b	-0.23857705
205	0x3ddc4e99	0.10757179
206	0x3dd7df15	0.105405964
207	0xbdbab9ea	-0.091174915
208	0xbd9dcccc	-0.077050775
209	0x3d983838	0.07432598
210	0x3dceb7a0	0.100936174
211	0xbc9e7e10	-0.01934722
212	0x3cba1ea0	0.022719681
213	0xbdd779a4	-0.10521248
214	0x3e51b304	0.20478445
215	0xbd96df74	-0.07366839
216	0xbd7452a0	-0.05964911
217	0x3da31534	0.079630286
218	0xbe23e950	-0.1600697
219	0x3e704422	0.2346349
220	0xbdf38fe4	-0.11892679
221	0x3e3650f0	0.17804313
222	0xbdf1530c	-0.11783418
223	0xbc42e3a0	-0.01189509
224	0xbe55f886	-0.20895585
225	0x3befddab	0.007320126
226	0x3daed723	0.08537128
227	0xbd70e58e	-0.05881267
228	0x3de24740	0.11048746
229	0xbd072bf2	-0.033000894
230	0x3e60c607	0.21950541
231	0xbdf5b845	-0.11998037
232	0x3e54d143	0.20782952
233	0x3e243038	0.16034019
234	0xbdeaadfc	-0.11458966
235	0x3d251c09	0.04030994
236	0xbdc66278	-0.0968675
237	0x3de632f4	0.11240187
238	0xbe83584f	-0.25653312
239	0x3dfcdc99	0.12346763
240	0xbddc9480	-0.107705116
241	0x3e171a5e	0.14756152
242	0x3de5c480	0.1121912
243	0xbe16a958	-0.14713037
244	0xbc846e39	-0.01616584
245	0x3dcfbd5c	0.10143539
246	0x3d22bfae	0.03973358
247	0xbdb01769	-0.08598215
248	0xbe2f1b0a	-0.17100158
249	0x3e68e821	0.227448
250	0x3d82e999	0.063922115
251	0xbd70b604	-0.058767334
252	0x3dfdc84c	0.12391719
253	0x3ddd46c6	0.108045146
254	0xbd83871b	-0.06422254
255	0x3e56dc6d	0.20982523
